…
wandb: Run data is saved locally in /home/ichakr2s/my_projects/BDD10k_Data_Augmentaion/BDD10-DA-Yolov5/yolov5/wandb/run-20220904_231401-38b4884w
wandb: Run `wandb offline` to turn off syncing.
wandb: Syncing run rare-bee-54
wandb: ⭐️ View project at https://wandb.ai/cv_da/YOLOv5
wandb: 🚀 View run at https://wandb.ai/cv_da/YOLOv5/runs/38b4884w
YOLOv5 temporarily requires wandb version 0.12.10 or below. Some features may not work as expected.
Overriding model.yaml nc=80 with nc=10

                 from  n    params  module                                  arguments                     
  0                -1  1      3520  models.common.Conv                      [3, 32, 6, 2, 2]              
  1                -1  1     18560  models.common.Conv                      [32, 64, 3, 2]                
  2                -1  1     18816  models.common.C3                        [64, 64, 1]                   
  3                -1  1     73984  models.common.Conv                      [64, 128, 3, 2]               
  4                -1  2    115712  models.common.C3                        [128, 128, 2]                 
  5                -1  1    295424  models.common.Conv                      [128, 256, 3, 2]              
  6                -1  3    625152  models.common.C3                        [256, 256, 3]                 
  7                -1  1    885504  models.common.Conv                      [256, 384, 3, 2]              
  8                -1  1    665856  models.common.C3                        [384, 384, 1]                 
  9                -1  1   1770496  models.common.Conv                      [384, 512, 3, 2]              
 10                -1  1   1182720  models.common.C3                        [512, 512, 1]                 
 11                -1  1    656896  models.common.SPPF                      [512, 512, 5]                 
 12                -1  1    197376  models.common.Conv                      [512, 384, 1, 1]              
 13                -1  1         0  torch.nn.modules.upsampling.Upsample    [None, 2, 'nearest']          
 14           [-1, 8]  1         0  models.common.Concat                    [1]                           
 15                -1  1    813312  models.common.C3                        [768, 384, 1, False]          
 16                -1  1     98816  models.common.Conv                      [384, 256, 1, 1]              
 17                -1  1         0  torch.nn.modules.upsampling.Upsample    [None, 2, 'nearest']          
 18           [-1, 6]  1         0  models.common.Concat                    [1]                           
 19                -1  1    361984  models.common.C3                        [512, 256, 1, False]          
 20                -1  1     33024  models.common.Conv                      [256, 128, 1, 1]              
 21                -1  1         0  torch.nn.modules.upsampling.Upsample    [None, 2, 'nearest']          
 22           [-1, 4]  1         0  models.common.Concat                    [1]                           
 23                -1  1     90880  models.common.C3                        [256, 128, 1, False]          
 24                -1  1    147712  models.common.Conv                      [128, 128, 3, 2]              
 25          [-1, 20]  1         0  models.common.Concat                    [1]                           
 26                -1  1    296448  models.common.C3                        [256, 256, 1, False]          
 27                -1  1    590336  models.common.Conv                      [256, 256, 3, 2]              
 28          [-1, 16]  1         0  models.common.Concat                    [1]                           
 29                -1  1    715008  models.common.C3                        [512, 384, 1, False]          
 30                -1  1   1327872  models.common.Conv                      [384, 384, 3, 2]              
 31          [-1, 12]  1         0  models.common.Concat                    [1]                           
 32                -1  1   1313792  models.common.C3                        [768, 512, 1, False]          
 33  [23, 26, 29, 32]  1     57780  models.yolo.Detect                      [10, [[19, 27, 44, 40, 38, 94], [96, 68, 86, 152, 180, 137], [140, 301, 303, 264, 238, 542], [436, 615, 739, 380, 925, 792]], [128, 256, 384, 512]]
Model summary: 355 layers, 12356980 parameters, 12356980 gradients, 16.4 GFLOPs

Transferred 451/459 items from yolov5s6.pt
[34m[1mAMP: [0mchecks passed ✅
…
